backend/drone_classifier_20s.onnx (onnx, 378816 bytes, 8 tensors)

classifier.weight f4 [10, 128]
00000000: 56b8 6fbe 92b3 c23d 76ea 2c3d 0099 bbbd
00000010: d0b7 efbd 1726 c43d 636a 8fbd 7879 5fbd
00000020: 4e59 77bc 5cfb e93d 54a6 85bd 34d7 033e
00000030: 7537 a13b 8177 40be b764 dd3c c523 8b3d
00000040: 48a6 3a3d 9732 20be 5e66 5d3c a272 ea3d
00000050: 5512 ed3d 5e86 55be b51f 29bd 32af 52bc
00000060: 51e2 d33d a9f0 a8bd 7e81 adbc 8043 a8bd
00000070: fcb6 bc3d a7ba fabd 21d9 c6bd e3dc 893d
00000080: 5f73 07bc b6d3 2a3d 9665 0abd f19a 05be
00000090: c1c6 0ebd a144 9dbd cab6 c43d ac76 8abc
000000a0: a922 c7bd 63df a53d f3c3 b53d cf46 9bbc
000000b0: aa37 7dbc b7b3 a6bd c319 683d 56e6 6cbd
000000c0: a3bf ebbd 9c46 adbd 7187 543b 1833 1ebd
000000d0: 921b dd3d 3c33 bebb 6fdf e6bd 565f 153e
000000e0: a865 443d 7f31 dd3d 780b 10be 8759 16be
000000f0: bd3c 8f3d 2bc3 b2bd 9e9f a4bd 60f1 b4bc
00000100: d7d0 db3d 8af0 fe3d fd1b f8bd 62c7 13be
00000110: e8f1 d83c d01c 983d 5e7a a33d d1ed 31be
00000120: 5f15 923d 49ca 46bd bcdd 2ebe 1944 1dbe
00000130: 7cef 9ebd b22c 113d 6b6e ff3d e927 05be
00000140: 0902 093d 721a bcbd 2040 ad3d 6640 583d
00000150: 4c78 b2bd 8d51 e83b f39c 4abd 7319 4bbe
00000160: 5f2f c93d e31a 39bd 4c4c 0fbd b738 e5bc
00000170: 27b6 20be a499 8bbd 2022 d8bc 67df 853d
00000180: cdc0 cbbd 830b 73be dfae c63d e2e5 e83d
00000190: bc60 1fbc ee06 53bd 67b4 aebb 38c3 dcbd
000001a0: 191a 20be 57e6 05be 2f88 933d 40d5 45be
000001b0: 5606 c13d b6f8 c9bd af40 31be cae2 0fbd
000001c0: a6c0 1b3d f50d 1abe e1f3 b93d f7c8 f3bb
000001d0: 9c48 cdb8 72f3 f1bd 1db2 c13d a841 e6bd
000001e0: 5413 073e 988e 43be 5c1a b4bd d43a ad3d
000001f0: 03a9 ecbd c9e9 0d3d 2787 14be 8890 9c3d
00000200: 8027 473d 3d98 80bd 5d98 8c3d e7da 98bc
00000210: 8d7c abbd 0c2f 29bd 8202 2b3e 51be 32be
00000220: 0000 b2bd e9d1 193d de90 38be a329 0a3e
00000230: fa16 083e 52cc 1f3e d6aa 09be 7958 733d
00000240: e595 33be a4ad 893d e706 09be 94ef f03d
00000250: 7bff 9c3d 151b 883d cce8 c33c 12c2 ab3d
00000260: e0b9 0abe 6ddb 503d 8028 ea3d bf48 943d
00000270: d006 ea3d 83b0 9bbb fa3c 903d c88b b43d
00000280: ca70 bcbd b6e2 cabd f03b 20ba 69bb b93d
00000290: 956d ff3d c1ce ef3c 0253 1b3a e7d0 43be
000002a0: 0a8b a43d ad63 fb3c 7796 8a3a b752 6ebd
000002b0: a042 dfbd c055 61bd f1d3 41be b270 57bd
000002c0: 541f 74bd c8e6 e4bd 6398 a5bd 9f5a 643d
000002d0: 7127 3cbd ed73 febd 03ed e23d c528 8f3d
000002e0: ed0b e1bc b8b7 84bd 7f92 c13d db97 d8bc
000002f0: 1d99 bdbd 6a01 0c3d 8ce1 24be 5039 a83d
00000300: 64fc c5bd d236 203d 4e8a 66bd 2fa0 7f3d
00000310: d662 a93d eb18 ffbd 3cef 233e 92b5 edbb
00000320: 15d1 0b3d 5491 1d3d f351 a33d dd8a d53d
00000330: 32ef 28be 2877 5fbe 0cc6 863d fd90 35be
00000340: 9e06 30bd edad 54bd 730d 68bb d713 313d
00000350: d914 0abe 1c1b 0c3c 4dc7 e03d b3b8 103d
00000360: 59e2 efbd 7d4b 613d a039 4dbd 5c33 c3bd
00000370: 79bb 16bd 4195 34be 9036 6fbd 1ccf a3bd
00000380: a671 4f3d 4bad 243e 5b71 4ebe 9be9 02be
00000390: 9ea3 0c3c 5ce4 16bd a789 d63d a537 343d
000003a0: 2bd8 0dbe 9ff2 02be 37f2 cdbd d702 3d3c
000003b0: 7ab4 ffbd aabc 993c 8d5f 1e3d 81d4 f13d
000003c0: 532b e63d 74e3 dfbd 54e9 943d e9e8 9b3d
000003d0: e291 c8bd e20e 06bd 2df8 bb3c 0e3b 113c
000003e0: e732 06bd 4e03 ec3b 6c03 303e 387a 72bd
000003f0: 9194 8fbd ab12 9e3d b7a5 693d a958 343e
-0.23410162 0.095069066 0.042215787 -0.09160042 -0.11704981 0.095775776 -0.070027135 -0.0545592
-0.0150969755 0.11424896 -0.06525865 0.12875062 0.004919941 -0.18795587 0.027025564 0.06793932
0.045568734 -0.15644298 0.013513176 0.11447646 0.11575762 -0.20852038 -0.041290004 -0.012859153
0.10345901 -0.08249027 -0.02117991 -0.082159996 0.09214589 -0.12242632 -0.09709383 0.06731584
-0.008267253 0.04170581 -0.033788286 -0.13047387 -0.034857515 -0.076791056 0.09605177 -0.01690229
-0.09723408 0.08099248 0.08875265 -0.018954663 -0.015455166 -0.08139747 0.056665193 -0.057836853
-0.11511161 -0.08460733 0.0032429362 -0.038622946 0.10796274 -0.0058044475 -0.11273085 0.14587149
0.04794851 0.10800456 -0.14066875 -0.1468259 0.06994007 -0.087286316 -0.08038257 -0.022087753
0.107331924 0.12448223 -0.12114713 -0.14431527 0.026482537 0.074273705 0.07982324 -0.17375876
0.071329825 -0.048532758 -0.17076772 -0.15358008 -0.07760522 0.035443015 0.124722324 -0.13003506
0.033449207 -0.091847315 0.084594965 0.05279579 -0.08714351 0.0070897997 -0.049466085 -0.19833927
0.098234884 -0.045191657 -0.03498487 -0.027981145 -0.15694486 -0.06816414 -0.02638346 0.06536751
-0.09948883 -0.2373486 0.09701323 0.11371972 -0.009727653 -0.05152028 -0.005331564 -0.107794225
-0.15634955 -0.13076149 0.07203709 -0.1931963 0.094250366 -0.09861891 -0.17309831 -0.035128392
0.03802552 -0.15044387 0.09079719 -0.0074397284 -9.788686e-05 -0.11814012 0.094578005 -0.11242992
0.13190967 -0.19097364 -0.0879409 0.08458486 -0.11555674 0.034646783 -0.14504682 0.07644755
0.048621655 -0.06279037 0.068649985 -0.018659068 -0.083733656 -0.041304633 0.16700175 -0.17455412
-0.08691406 0.0375537 -0.18024012 0.13492446 0.13290015 0.15605286 -0.13444075 0.059410546
-0.17537649 0.067225724 -0.1338154 0.11764446 0.076659165 0.066457905 0.023914717 0.08386625
-0.13547468 0.05099051 0.11433506 0.07240438 0.11427081 -0.0047512664 0.0704288 0.08815724
-0.092012 -0.09906523 -0.0006112447 0.09068949 0.12472073 0.029273393 0.000592515 -0.19122659
0.08034332 0.030687178 0.0010573406 -0.05818435 -0.109013796 -0.05501342 -0.18928505 -0.05259771
-0.05960019 -0.111768305 -0.08085706 0.055750486 -0.04593605 -0.12424455 0.11080363 0.06990198
-0.027471507 -0.06480354 0.0945177 -0.026439598 -0.0925772 0.034181036 -0.16101664 0.082140565
-0.0966728 0.03911478 -0.05628424 0.062408622 0.082708046 -0.124559246 0.1600923 -0.007254311
0.034134943 0.038468674 0.07974615 0.10426877 -0.16497496 -0.21822798 0.06580743 -0.1773109
-0.04297506 -0.05192368 -0.0035408407 0.04323181 -0.13484515 0.008551385 0.109755136 0.035332393
-0.11713094 0.05500363 -0.050103784 -0.095312804 -0.03679988 -0.17635061 -0.058401644 -0.07998487
0.050645493 0.16081731 -0.20160429 -0.12784426 0.008583931 -0.036838874 0.10475474 0.04399838
-0.13851993 -0.12787865 -0.100559644 0.011536322 -0.12485595 0.01876672 0.038665343 0.1180811
0.11238732 -0.10932055 0.07271066 0.076127835 -0.0979345 -0.032729037 0.022945488 0.008864177
-0.032763388 0.0072025424 0.17188805 -0.059198588 -0.07010759 0.077184044 0.057042804 0.17611946

classifier.bias f4 [10]
00000000: f48f b23d 06a4 af3d 188a a83b c582 d2bb
00000010: 2eb1 ce3c 91f6 8c3d 5133 43bd 49fc 0dbd
00000020: 0dcc 90bd 3378 453d
0.08718863 0.08576207 0.005143415 -0.0064242803 0.02523097 0.06882966 -0.04765636 -0.034664426
-0.070701696 0.048210334

onnx::Conv_49 f4 [32, 1, 3, 3]
00000000: 4ba5 38be d26d 46be 7709 12bf 1d42 2fbf
00000010: 6ebe 06bf c937 e1be 1587 cf3e d445 123f
00000020: 5b74 693f 3444 873f c123 b23e cb8a b9bf
00000030: 3171 60bf c30f 8c3e 8e94 f13e a273 1f40
00000040: ae0c 10c0 a7d1 13bf e014 d33d 5d50 a03e
00000050: c9e5 a1be 38b3 4cbe 5557 9ebe ac63 29be
00000060: e514 b1be 98bd 543e 0a75 8dbe 833c 83bc
00000070: 42d8 c8bd 3318 87be d66a 4c3c 11e9 c93a
00000080: 756f 8cbe d712 5f3d 5e61 12be 1324 7abe
00000090: 663c 7a3e cb9f 8dbe 3e56 bcbe 5f15 8b3c
000000a0: 9157 26be 7208 d4be 3237 8d3e f02e 77bd
000000b0: 52eb 4ebe 8325 423e 308a b2be 3fb6 34be
000000c0: fc3b ba3e be01 c9be fd1b e9be 40a9 c0be
000000d0: 07c1 cebd e43a a43e d4d1 b4bf 84fa 933e
000000e0: 9a16 0040 3102 c5bf 907c dd3f 15b9 92bf
000000f0: 8019 f33f 7f28 acbf 256d 73bf eace 85be
00000100: 792e 0abe be78 28bf 78c8 0abf afc3 9ebe
00000110: b105 ac3e df43 4a3f 7eac 243f 61b5 703f
00000120: bb38 7d3e 93a2 1a3f 0f25 32bf c470 463f
00000130: 5794 703e e11b 28bf 8551 6e3f 9ab1 59bf
00000140: d8c9 a23e 6faa e13e fafa e33e ddff a83e
00000150: cb17 983e 480f 923e eeb1 4ebd a880 7cbe
00000160: df83 6ebc 04fc 08bf de42 a2bd 34f0 f73d
00000170: aee9 95be ac56 3dbe fe24 47be fd4a 413e
00000180: eae3 dfbd 9644 d8bc c62c e7be 1db5 c13e
00000190: 06b2 9f3f 54b0 053d 4053 c03e 32e3 823e
000001a0: b187 a8bf 4635 55bf c4f9 973f 781e b7bf
000001b0: 3e68 c6bd 50d1 31be dba9 573c da61 2ebe
000001c0: 227c bfbe c1c6 5bbe b38a f0bd 0b9d a1bd
000001d0: 2b24 6f3e cc60 463f c129 883e d57d 4d3f
000001e0: 3688 d03d 1153 12be b8b4 c9be db54 5abf
000001f0: d109 8d3d 863e 923e 50a5 1abd b8ef 2fbf
00000200: d6f9 bc3e 456b 533f 6bd9 143f 985b 713f
00000210: 6a41 5fbf 4686 02c0 5ef6 a73f 773a d53e
00000220: 6313 483e 1171 3cbf 99cc 863f 01a9 01bf
00000230: 6344 70bf 4aca ae3e cc06 633c 7cdb 17bf
00000240: 22f5 2cbf 5037 253f 8c3f 76bf 3ea3 e0bb
00000250: 3392 19bf d882 7f3f 8c96 8d3e 002b c4bd
00000260: a435 17bf 722f f53d c11d 58be 1c2e 863e
00000270: fdea 7f3e 8cba 203f daa2 c3be cca9 dbbd
00000280: 29ad be3e 6947 e83d fa87 7abf c56a 373f
00000290: 312d 42bf 7997 f0be 2a28 8f3d d99c 403f
000002a0: 92db a6be a02d a6be 31a1 e23e 3502 7dbf
000002b0: 2bc6 7fbf 59b4 05be 0662 b2be 19f0 603f
000002c0: db1a 45bd 24f4 513f 8278 fc3e 870a d0be
000002d0: 715f f5be f978 543f ceb0 143f 8a69 883f
000002e0: cd13 453f f6db 92bf 9e9e 013e 51d1 a4bf
000002f0: 5da1 d93e 7149 4f3e 6718 50be d63e 483e
00000300: 0fef dd3e 7f2e 7a3e 6faf 163e 24ce bebb
00000310: c8b1 1bbe 6ee8 463e df05 e53e 152c 3bbf
00000320: 53c7 84bf 44df f83e 7add f9be dfff 2f3f
00000330: a912 22be 0c20 21be 1504 093d 337a 4cbf
00000340: f93b 17bf a4f0 3c3f 8ac6 223f bf73 54bf
00000350: 6fd2 813f 0a5f 23bf b785 76bf 9f50 383f
00000360: 6b44 29bd 8b13 36bd 9d82 c8be 0b39 ac3e
00000370: dfbc 843d b993 95be 948f 84be f73a 953d
00000380: 4981 eabe 7fa9 2f3f addc f43d 8135 49bf
00000390: c5a9 2e3f d1f7 243f eb2f 80bd 1a01 03bb
000003a0: 5a06 343b 0a9a bebe efaf 05bd 459f 91bc
000003b0: 04a5 c83d 12d6 bbbd 2f56 9dbe 5cf4 03be
000003c0: e17c 41be 0376 88be 0314 1bbd 0ce8 6c3f
000003d0: 7afc a03f a1ee 87bf 005d 8fbf fe76 0ebf
000003e0: aff4 a8bf 548a 1a3f 9aa2 183d 3bc7 393f
000003f0: d607 53bf c7cc 493e 8c53 483f c164 dd3f
-0.18031804 -0.1937783 -0.5704569 -0.68460256 -0.5263432 -0.43987873 0.40532747 0.571378
0.9119317 1.0567689 0.34792903 -1.4495481 -0.87672716 0.27355775 0.4718365 2.4914327
-2.250774 -0.5774178 0.10306716 0.31311312 -0.31620625 -0.19990242 -0.30926004 -0.16541928
-0.34586254 0.2077545 -0.27628356 -0.016020065 -0.09806873 -0.2638565 0.012476644 0.0015404542
-0.27428785 0.054461326 -0.14294955 -0.24427824 0.24437103 -0.27660975 -0.36784548 0.016977964
-0.16244341 -0.41412693 0.27581173 -0.060347497 -0.20206955 0.18959622 -0.34871054 -0.17647646
0.3637389 -0.39259142 -0.45529166 -0.37629128 -0.10095411 0.3207618 -1.4126534 0.28902066
2.0013795 -1.5391294 1.7303638 -1.1462733 1.8992157 -1.3449858 -0.95088416 -0.26134425
-0.1349429 -0.6580924 -0.5421214 -0.3100867 0.33598092 0.79009813 0.643257 0.9402676
0.24728672 0.6040432 -0.69587797 0.77515817 0.23494087 -0.6566754 0.9309314 -0.85036623
0.3179462 0.44075343 0.44527417 0.33007708 0.29705653 0.28527284 -0.050462656 -0.24658453
-0.014557808 -0.53509545 -0.0792291 0.12106362 -0.29279846 -0.18490094 -0.19447705 0.18876262
-0.10932143 -0.026399892 -0.45151347 0.3783349 1.2476203 0.032638863 0.37563515 0.2556396
-1.316641 -0.83284414 1.1873097 -1.4306173 -0.09687851 -0.17365003 0.013163055 -0.17029515
-0.37399393 -0.21462537 -0.11745205 -0.07891282 0.2335364 0.7749145 0.26594356 0.8027013
0.1018223 -0.142895 -0.3939569 -0.8528573 0.06886638 0.28563327 -0.03775531 -0.68725157
0.3690936 0.82585555 0.58144253 0.94280386 -0.8720919 -2.0394454 1.312206 0.41646168
0.19538645 -0.73610026 1.0531188 -0.50648504 -0.9385435 0.3413871 0.013856601 -0.5931928
-0.67561543 0.64537525 -0.96190715 -0.0068553975 -0.5998871 0.99809027 0.2765392 -0.09578514
-0.59066224 0.1197194 -0.211051 0.26207054 0.24991985 0.6278465 -0.38210183 -0.107257456
0.37241486 0.113417454 -0.97863734 0.7164729 -0.75850207 -0.46990564 0.069900826 0.7523933
-0.32589394 -0.32456684 0.44263604 -0.9883149 -0.99911755 -0.13057078 -0.3484041 0.8786636
-0.048121314 0.82013154 0.4931069 -0.40633032 -0.4792438 0.8299709 0.5808228 1.0657208
0.7698334 -1.1473377 0.12658164 -1.2876378 0.42505923 0.2024286 -0.20321809 0.1955522
0.4334645 0.244318 0.1471536 -0.0058229137 -0.15204537 0.19424602 0.44731042 -0.7311414
-1.0373329 0.48607838 -0.48801786 0.68749803 -0.15827431 -0.15734881 0.03345116 -0.7987396
-0.59075886 0.7380469 0.63584197 -0.82989115 1.0142344 -0.63816893 -0.9629778 0.7199802
-0.041325014 -0.04445223 -0.3916215 0.3363727 0.06481337 -0.29214266 -0.2589079 0.07286637
-0.45801762 0.68618006 0.11956153 -0.78597265 0.682278 0.6444064 -0.062591396 -0.001998967
0.0027469606 -0.37226897 -0.032638486 -0.017776141 0.09797099 -0.0917169 -0.30729815 -0.12886184
-0.18895294 -0.26652536 -0.03786088 0.92541575 1.257705 -1.0619699 -1.1200256 -0.5565032
-1.3199672 0.6036732 0.037264444 0.72569627 -0.8243383 0.19707023 0.7825248 1.7296373

onnx::Conv_50 f4 [32]
00000000: 8ad7 d2bd 0df0 193e 8f71 7dbc 9bff b2bd
00000010: 2ef5 a7bd c418 18bd 237a a63d 6786 46bd
00000020: f0fa 2abb 4972 033d f6b9 a8bc 1721 d63d
00000030: 096c 21bd d2fb 423d 210f c93d 8e34 9bbc
00000040: 2810 b03b a844 783a 5793 b7bc 48ef 53bd
00000050: 12d5 e43c 1a5d 373c c911 0bbc cb3e 523d
00000060: 34c4 3cbd 41de 193d 5a23 75bd 8a5b a3bd
00000070: 807c cd39 55c7 34bd be80 3b3d 985f 49bb
-0.10295017 0.15032978 -0.015468969 -0.08740159 -0.08201061 -0.037132993 0.081287645 -0.04846802
-0.0026089512 0.032091413 -0.020596486 0.1045553 -0.03940967 0.047603436 0.09817339 -0.018945958
0.0053730197 0.000947068 -0.022409124 -0.05174187 0.027933631 0.011191631 -0.008488127 0.051329415
-0.04608555 0.037565473 -0.059848167 -0.07976444 0.00039193407 -0.04413541 0.045777075 -0.0030727144

onnx::Conv_52 f4 [64, 32, 3, 3]
00000000: 7a86 b0bb 576d 5f3d ca32 5b3d a9a4 14bd
00000010: 1db1 053d 91b3 24bb 817a 653d b59c f8bc
00000020: 8cb4 7c3d 1475 773c 49d3 8bbd 2eab 9cbd
00000030: adb3 d9bd 5f3f 7bbd 2c96 8abc a5eb abbb
00000040: 3261 0a3c f332 29bd edc4 783a 2458 42bd
00000050: 38c7 33bd 54c8 56bb 52c8 933d c691 92bc
00000060: 80e2 483d a051 663d 278b 603d 9867 ad3d
00000070: a5c7 233c 9cfa 6d3d 1d9e 4e3d 647b bb3d
00000080: a69d ec3c 30b6 36bd 52ca 91bc 46c8 0ebb
00000090: d49a a23d 143d 1fbc 7a7d a93d 7bcd 883d
000000a0: b84e 923d 5c46 af3d b98e 843d aa71 843d
000000b0: 1456 563d 209a db3b 42d6 903d 6d59 6f3d
000000c0: 529c 9a3c 621c ae3c 3e27 1f3d bee7 4a3d
000000d0: bb95 063d 4d95 e9bb a6c1 bebc a6f4 cfbd
000000e0: 1aef bcbd 0f92 3ebd 4654 053d e9ae d73c
000000f0: f413 e0bc aabd 8bbd 77b4 333d da6d 1b3d
00000100: 69a9 713d bfea 3f3d 304a eebc 8aea c0bd
00000110: 2e1e f33a 2ab0 083e 7c65 e13d 99d8 8f3d
00000120: d1d2 8fbd 3d5b 1dbd 7e68 c6bb d60d 9638
00000130: a2b1 b3bc 538e 063d 917e e33c a373 96bd
00000140: f0dd c737 1857 763d 2929 273d dc21 493c
00000150: a591 c93d 2971 05bb 7778 27bc cd62 353d
00000160: a466 963d 4186 193d 3f7c 3a3d ef10 843d
00000170: a7c2 4f3d 8c7b af3c db07 e53c b8f4 193d
00000180: af5c 64ba af35 783d cfcf 2e3d cd38 5cbd
00000190: df1e 00be 8fb3 12be e9cd 2bbd 661c cabc
000001a0: ceab 1e3d b3ee 2cbb bbdc a0bd e1c6 a3bd
000001b0: 8c83 dfbc db02 8d3d 5e0c 743d 4320 c5bb
000001c0: d700 8bbd 93fa 123d e9fa 2b3d a892 8bbd
000001d0: 0e07 25bd 2b1d 79bc 2f95 4ebd 5637 233d
000001e0: d10b 6f3d 852c c83d ecad 64bd 41a8 2a3c
000001f0: 7a11 c7bb 9f48 833d 79e3 ab3c c195 b4ba
00000200: 288e bcbd d7db 843d 7358 7d3b 7ae6 06bd
00000210: 9b5c cabc a6ac 0fbd f4bb 01bb b08c 5ebd
00000220: b214 d93b f2f4 3abd ee66 aebc f2f7 a53a
00000230: a618 1ebc 8ff8 44bc f243 32bd 5173 73bd
00000240: d62a 1ebd 467b a33b b21b 113c 042b 483d
00000250: 6d88 d13c c301 3ebb 175e 0abc 3b8d 42bd
00000260: 5b52 cabd 62d6 b93d a980 c23d be0a 273c
00000270: 1b97 e03c ca47 27bd c551 05bd 5021 393d
00000280: ff35 d13c 6b44 3dbc 93e1 98bb b8ce 4f3d
00000290: fc78 1a3c e17b 1fbd 4c1f 3a3d dee7 3cbd
000002a0: 5ba4 743d f7bd 5fbc 285c 2d3d 49b6 953d
000002b0: 844c 753d 1d16 f43c f1d3 b8bd fa36 593c
000002c0: 710e 77bd 574f 393d f84d 003d a424 9c3d
000002d0: 9b22 84bd 834b 20bd bc25 b9bd a004 84bd
000002e0: 1c6d 1fbc 2c7d 1f3b 95d2 103c 7cae 05bd
000002f0: cfd1 b5bd eb59 b03d 5709 6a3c 10a8 1c3d
00000300: 0c26 d23d 1ca7 a83d 4aa5 c7bc d433 8a3d
00000310: 7fc1 813d 1e6e cf3d 989d a73c 403d 1bbd
00000320: 8879 1d3c 4e6e 5fbd e2de 353d 99ee 523d
00000330: ec4e a43c 5438 0f3d 1bf3 fabc efa0 9cbd
00000340: acea dab8 3c73 8c3c 2724 88bd cba4 cbbc
00000350: d3a0 53bb 3662 163c 8ac2 20bd 10d4 dbbd
00000360: f16d 873d c2d9 6e3d bf8a e43d 0fa9 973d
00000370: 4ea3 a2bc 5fa5 983d f13f 16bd 56c0 0ebd
00000380: d168 5fbd 7fb0 633d 2f14 263d fb1e 93bc
00000390: 9189 b63d 7faf 3b3d 2673 2abd 26f4 1e3d
000003a0: 88aa a43d 43dc ee3c 1aaa d13c 16c0 c03c
000003b0: 693d fb3c 6e6a b03a 76c0 033c 723c 1bbd
000003c0: fba5 873d d10f 3abd f355 1fbc 7195 c6bd
000003d0: 3518 7dbd 8d46 973b d2f8 b63d f649 dc3d
000003e0: c4ae 163d 7a47 5f3d fbdf 1abd 99e9 16bc
000003f0: f51b 33ba 89d4 77bc ffe1 91bd 7983 483c
-0.0053871246 0.054547634 0.053515233 -0.036289845 0.03263961 -0.0025131444 0.056025032 -0.030348161
0.06169562 0.015103597 -0.06827409 -0.076498374 -0.106299736 -0.061339732 -0.01691731 -0.005246597
0.008446025 -0.041308355 0.00094897934 -0.04744734 -0.04389116 -0.0032773213 0.072159424 -0.017891776
0.049044132 0.056230187 0.054820206 0.084670246 0.009996329 0.058100328 0.050443757 0.09154394
0.028883766 -0.04460734 -0.01779667 -0.0021786853 0.07939687 -0.009719152 0.08275886 0.06679817
0.07143921 0.08558342 0.06472535 0.06466992 0.052328184 0.0067017227 0.070721164 0.058434892
0.018873367 0.021253768 0.038855784 0.049537413 0.032857638 -0.0071283937 -0.023285698 -0.10154085
-0.092252925 -0.04652601 0.032551073 0.02632852 -0.027353264 -0.06823285 0.043873277 0.03794656
0.058999453 0.04685473 -0.02908811 -0.09419735 0.0018548423 0.13348451 0.11005685 0.070237346
-0.07022632 -0.03841709 -0.006054937 7.1551345e-05 -0.021935288 0.032850575 0.027770313 -0.07346275
2.3825996e-05 0.060141653 0.040810738 0.012276139 0.098422326 -0.0020361638 -0.010221592 0.044283677
0.07343796 0.03748155 0.045528647 0.06448542 0.050722744 0.021421216 0.027957847 0.037586898
-0.00087113207 0.06059807 0.04267865 -0.053765107 -0.12511776 -0.14326309 -0.041944418 -0.024671745
0.038738064 -0.0026387393 -0.07854601 -0.079969175 -0.027284406 0.0688531 0.059582107 -0.006015809
-0.067872696 0.035883497 0.041987333 -0.06815082 -0.04028993 -0.015204708 -0.05043524 0.039847694
0.05836088 0.097741164 -0.055829927 0.010416091 -0.0060750814 0.06410336 0.02098249 -0.001377754
-0.09206802 0.064872436 0.0038657456 -0.032934643 -0.02470236 -0.03507676 -0.0019795867 -0.05433339
0.0066247815 -0.045643754 -0.021289315 0.0012662394 -0.009649431 -0.012022152 -0.04352183 -0.059436146
-0.03861507 0.0049890606 0.008856701 0.048869148 0.025577748 -0.002899275 -0.008445284 -0.04749797
-0.09878989 0.090740934 0.09497196 0.010195432 0.027415803 -0.040839948 -0.032548685 0.045197785
0.025538443 -0.011551957 -0.0046655624 0.05073425 0.009428259 -0.0389365 0.045440003 -0.046119563
0.059727054 -0.013656131 0.042324215 0.07310159 0.059887424 0.0297957 -0.090247996 0.013257736
-0.060316507 0.04524168 0.031324357 0.07624176 -0.06451913 -0.039134514 -0.090404004 -0.06446195
-0.009730604 0.0024336083 0.008839269 -0.032637104 -0.088779084 0.086109005 0.014284453 0.038246214
0.10261163 0.082349986 -0.024370808 0.06748167 0.063357346 0.10128425 0.020460889 -0.03790021
0.009611495 -0.054548554 0.04440201 0.051497076 0.020057164 0.034965828 -0.0306335 -0.07647883
-0.00010438761 0.017144792 -0.066475205 -0.024858853 -0.0032291904 0.009178689 -0.039248027 -0.10733807
0.066127665 0.05831314 0.11159276 0.07405292 -0.01985326 0.07453417 -0.036682073 -0.034851395
-0.05454332 0.05558824 0.040546592 -0.017959109 0.089129575 0.045821663 -0.04161372 0.038807057
0.08040339 0.029157763 0.025593806 0.023529094 0.030668931 0.0013459453 0.008041492 -0.037899442
0.06623455 -0.04542524 -0.009725082 -0.096964724 -0.061790664 0.0046165646 0.089341775 0.107562944
0.036787763 0.054511525 -0.03781126 -0.009210967 -0.0006832474 -0.015126356 -0.071231835 0.012238377

onnx::Conv_53 f4 [64]
00000000: f624 8fbe 29e2 033f aa94 ab3f 5714 ba3f
00000010: 3bbb 353f f4b9 473f 8b36 e43e 4e52 b93f
00000020: dc61 aebf db0b 453f 892b 633f ea71 2abf
00000030: 8da1 503f 6244 753e eddd 733f 740d 42bf
00000040: 956c 4d3f ac98 60be 760b 823f de51 f23f
00000050: 827c c2bf 7574 cd3e 2727 e43f 0ba3 293f
00000060: 1ab1 403f 910b c13f e481 a23f 4058 693d
00000070: 48d1 973e bc31 8b3f 1e54 2e3e b531 ed3e
00000080: 00e0 acbf fa7c 923f 9171 9ebf a0fd b63f
00000090: f014 ab3f e7c9 f63f b701 743f 740d 413f
000000a0: 0ae1 34bf 5331 b63f 2833 16bf c6c1 2a3f
000000b0: f0b9 8e3e 3566 3e3f 7d9c a03f 01c8 1b3f
000000c0: 20bf 173f b48a aa3f 0025 70be 9f75 f73e
000000d0: 08c7 333e a707 ca3f 39bc 973f 3e57 e23f
000000e0: 93b2 8a3f f873 8e3e 19df e5bd 4e8a d53f
000000f0: 4b69 bd3f da3d 6b3f 791c 833f 9040 853f
-0.27957886 0.5151697 1.3404744 1.4537457 0.70988816 0.78018117 0.44572863 1.4478242
-1.3623614 0.76971215 0.88738304 -0.6658007 0.81496507 0.23951867 0.95260507 -0.7580178
0.8024381 -0.2193324 1.0159748 1.8931234 -1.5194247 0.40127912 1.7824448 0.6626441
0.75270236 1.5081655 1.269589 0.056968927 0.29651856 1.0874553 0.17024276 0.46326986
-1.3505859 1.144439 -1.2378408 1.429615 1.3365765 1.9280366 0.95315117 0.7541115
-0.7065588 1.4233803 -0.5867181 0.66701925 0.27876234 0.74374706 1.2547756 0.60852057
0.5927601 1.3323579 -0.23451614 0.48331925 0.17556393 1.5783585 1.1854316 1.7682874
1.0835747 0.27822852 -0.11224193 1.6682832 1.4797758 0.91891253 1.0243064 1.0410328

onnx::Conv_55 f4 [128, 64, 3, 3]
00000000: 3fe7 0a3d 53d7 bb3b 34a3 123d d654 303d
00000010: b008 f23b 3159 693d 4c01 a5bd eeef f53c
00000020: 1c8f 9ebc a021 49be 73fa f2bd 5ac1 44bd
00000030: 54a8 b83d 5fac e23c aed0 60bc a021 c23d
00000040: 6fa7 e1bb 963e ad3d 977b f2bc ddab c23b
00000050: 590d a23d a8f0 e23b 86dc d93c 8a3d 953d
00000060: f784 433d 877b c0bb 81f7 fbbb f3a7 f5bc
00000070: 9c50 213d 1140 6c3c 98c4 e6ba 04d0 05bc
00000080: ae6c 39bd af50 9a3d 40c0 053d caf0 65bc
00000090: 1dfd a6bb d0a2 84bc 4100 753c 3ce8 78bd
000000a0: 221e 39bd cab8 8ebd 7ef6 b8bd 5b4b 263d
000000b0: 589c 79bc 3b88 74bd 21a1 be3a 161f c6bd
000000c0: b922 3fbd 28ab 6cbd 4349 5d3d d49e a33d
000000d0: 178e 743d 1882 28bd 92b3 033b b0a6 3d3d
000000e0: 778a e4bc 1429 a3bc c795 e7bb 3d0a 97bd
000000f0: f012 77bd d727 05be 3fb4 44bc 14ae 513d
00000100: 1304 863d 9c2c cf3d 1a66 8c3c 2abe 09bd
00000110: 596c e53b 4f99 863d b521 d23d 2e27 ce3d
00000120: 19b4 8b3a 713b d93c 3454 b23d 2259 2abd
00000130: 0dc4 bd3d 25ad d23d d09a 503d d7c1 353d
00000140: 1568 60bd 0c71 12bd 60ee 093a 21ba 0ebe
00000150: c84c 5dbc 4c91 56bc 45d5 12bd ee9f 8cbd
00000160: 0487 0abe c3b4 dc3b 3a30 7cbc b5b2 9e3d
00000170: 6c1b c0bc 0636 323d 5c84 66bd 5948 e53c
00000180: 51e2 243d a9d4 933d 36b7 64bd 64b6 e23c
00000190: 5670 9cbd 25ea c0bd 4ad5 7cbd 4d05 123d
000001a0: 81c0 433d 9d19 e7bd 916b 83bd 7683 b5bd
000001b0: ad4c 293d 5911 933c 45b8 1ebd 313d 973d
000001c0: fd52 2cbd 2067 013d 7937 79bd 86c2 9dbd
000001d0: 681e 11be 7c09 0fbc 48c0 00bd 3a3b 9a3b
000001e0: 6873 84bd 3a4d 66bd b57f b83c fd30 b1bd
000001f0: 910a 8ebd 0ee6 413c 2f57 a53d 3b1c 8c3c
00000200: bec1 be3d 3d09 e1bc 9c24 05bc 5ab9 9a3c
00000210: 1a7f 36bd 242c 47bd 89dd b63c 63c5 df39
00000220: e6e4 5fbc 7231 c9ba 182b 48bd 840c fdba
00000230: c307 213d 2f6c 3c3d 1e91 903d a327 14bd
00000240: d2b0 7cbc 70b8 6dbd cd72 7ebd 057a e23b
00000250: 9a8f 87bc 86fc f7bc 46e1 44bb 2978 1e3d
00000260: 9657 243c ce07 6a3c d3ec 7bbd 2f9b 1b3d
00000270: 9356 4a3d 9073 d3bc 7e1a 2dbd 9b5d f03b
00000280: 058a 1bbd 57a9 f43c 7c79 81bd 1f2d 5b3d
00000290: 2a71 1f3d fef5 d53c 8577 a43d 16f2 4b3c
000002a0: cb49 d73c 5e09 4a3d 3931 abbc 6093 6dbd
000002b0: 5b81 12bd c4f5 873b 91d2 4f3c 846f 6c3c
000002c0: 15d4 30bd 054e e03d 4f4b e63d 7c0d ed3d
000002d0: 0849 dc3d 7e30 323d 8e54 af3d 6aca 123d
000002e0: f54c 5a3a 62e0 163c d8fa ea3c 17c9 8a3d
000002f0: 895e 56bc 3ea9 de3c 3925 99bd 0117 203b
00000300: e425 3e3c 94d8 a8ba b750 77ba 0a80 c73c
00000310: 04df 923d fe2f b73d ff69 bebc 805d af3d
00000320: 615c 4a3c 020d 953d 86c1 383c bc4f 29bc
00000330: 8cd6 cc3d 3ae8 d83d 82fa 363d e87e b4bc
00000340: 60fa f7bd 0ace 1bbd 12e5 513d 1db4 d73c
00000350: 7fa9 91bd a068 81bd b121 a2bd 738f 5fbc
00000360: f3c6 453d 519b cb3c 5c7b d53c f1c4 413d
00000370: 49ae b63d 0bd6 823d 54f2 bebb 7b0a 6e3d
00000380: ec53 c63a 350a 5e3d 62c3 97bc 44d8 943d
00000390: 4306 463c e5b9 0b3d 6154 b03d 3757 6a3c
000003a0: fe75 ac3d c162 fc3d b1f7 ebbc 7382 5a3d
000003b0: 8dfd 5fbd 0b02 57bd 5ca2 01bd 4cef 07bc
000003c0: e068 153e 4a08 e43d 5396 053e 5024 a73b
000003d0: 350e b6bc 1683 64bd 408f a83d 763c 833d
000003e0: 606c 113d 7f18 70bc 498a 733c aaa7 4e3d
000003f0: 5d13 953d 4d83 5cbc 4d14 8e3c 55d8 8c3d
0.03391194 0.0057324558 0.035800174 0.043049656 0.0073862895 0.056969825 -0.08056888 0.030021634
-0.01935535 -0.19641733 -0.11864176 -0.048035957 0.09016481 0.027670084 -0.013721628 0.0947907
-0.0068864147 0.08459203 -0.029599948 0.005940898 0.07912702 0.006925661 0.026594412 0.07287128
0.047734227 -0.0058741006 -0.007689417 -0.029987311 0.039383516 0.0144195715 -0.0017606197 -0.008167271
-0.04526966 0.075349204 0.032654047 -0.014034459 -0.0050960914 -0.016190916 0.014953674 -0.06076835
-0.045194753 -0.069688395 -0.0903139 0.04059921 -0.015235029 -0.059700232 0.001454387 -0.09673898
-0.046663973 -0.057780415 0.054024946 0.079892784 0.05970582 -0.041139692 0.0020096046 0.046301544
-0.027898056 -0.019917049 -0.0070674154 -0.07375 -0.060320795 -0.13003479 -0.012005865 0.051191404
0.06543746 0.101159304 0.01713853 -0.03362862 0.0070014414 0.0657221 0.10260335 0.10066067
0.0010658532 0.026517602 0.08707467 -0.04158891 0.09265909 0.10286931 0.05092889 0.044374313
-0.05478676 -0.03575234 0.0005261656 -0.1393819 -0.013507076 -0.013096165 -0.03584792 -0.06866442
-0.13528067 0.0067354157 -0.0153923575 0.077489294 -0.023450576 0.043508552 -0.05627857 0.0279886
0.040254895 0.07218296 -0.055838786 0.027674861 -0.07638614 -0.094196595 -0.061726846 0.035649586
0.047791008 -0.11284182 -0.06417001 -0.08862965 0.04133289 0.017952608 -0.038749952 0.07384718
-0.04207133 0.03159249 -0.06084392 -0.07703118 -0.14171755 -0.008730289 -0.031433374 0.0047067674
-0.064673245 -0.056225993 0.022521833 -0.08651922 -0.06935609 0.0118346345 0.080732696 0.017103305
0.09314297 -0.027470225 -0.008126404 0.01888721 -0.044554807 -0.04862608 0.022322433 0.0004268094
-0.0136654135 -0.0015349819 -0.048869222 -0.0019306098 0.039314043 0.04600161 0.07058929 -0.036170613
-0.015423017 -0.05803722 -0.0621212 0.0069115185 -0.016547967 -0.03027178 -0.00300415 0.038688812
0.010030648 0.014284087 -0.06150515 0.03798979 0.04939897 -0.02581194 -0.042261593 0.0073353774
-0.037973423 0.029865904 -0.063219994 0.053509828 0.03892628 0.026118275 0.08030609 0.0124478545
0.026280304 0.04932534 -0.020897495 -0.058001876 -0.035767894 0.0041491706 0.01268448 0.014430884
-0.043171007 0.10952381 0.11244833 0.115748376 0.10756117 0.043503277 0.085610494 0.03583757
0.00083275075 0.0092087705 0.028684065 0.06776636 -0.013084062 0.02718031 -0.07477803 0.0024427774
0.0116057135 -0.0012881928 -0.00094343297 0.024353046 0.07171443 0.08944701 -0.023243902 0.085627556
0.012351126 0.07277872 0.011276608 -0.010333952 0.10001859 0.10591169 0.044672497 -0.02203317
-0.12108302 -0.03803829 0.05124385 0.026331002 -0.07112407 -0.06318784 -0.079165824 -0.013645041
0.048285436 0.024854334 0.026059799 0.04730696 0.08919961 0.06388482 -0.0058272276 0.058115464
0.0015131212 0.054208953 -0.018525783 0.07267812 0.012086454 0.03411283 0.08609844 0.01430302
0.08420943 0.12323523 -0.028804632 0.053347062 -0.054685164 -0.052492183 -0.03164898 -0.008296799
0.14590788 0.111343935 0.13045625 0.0051007643 -0.022223571 -0.055789076 0.08230448 0.064080164
0.035503745 -0.014654278 0.014864513 0.050452866 0.07279084 -0.013459039 0.017343665 0.068771996

onnx::Conv_56 f4 [128]
00000000: 9120 aebf a8b8 64be f427 973f 9d27 a9bf
00000010: 7f41 d5be d9ed 67bf 722c a0be fdb9 4ebe
00000020: 5833 33c0 cecb 7e3f 0615 e1bd 4a60 e93f
00000030: 5214 2d40 6fe6 cfbf ecb0 7fbf fff2 6b3f
00000040: 81d3 16c0 e5d5 1ac0 e249 57bf d34d 4140
00000050: 2086 c9bc 9874 f5bf 90a9 073e 9ba1 bebf
00000060: baf6 e3bf e447 b93d 055b 5abf 73d6 01bf
00000070: 81ef 3540 9584 83bf 6cb5 8ebf 2004 6540
00000080: fd18 d53f 7081 93bf 9065 0cbf e387 8ebf
00000090: af48 0fbf e42b bfbe cde4 3a40 d300 05bf
000000a0: aa6d edbf 0a27 1e40 80ba edbb 8a34 babe
000000b0: 9dec 4fbf 404c 07c0 278b f5be 2e6a 42c0
000000c0: 0bd0 92bf f46e 8cbf f0d9 5bbf cc31 c4be
000000d0: b3fe 3940 2767 193e e8ba d43e 14f7 ae3f
000000e0: 704f 3abf 18e4 e2bf fe55 0fc0 7507 503f
000000f0: 412c 1abf 24d6 64bd 1f12 fdbf a6ff 25bd
00000100: a6ff 1fbf d320 f23e 9eab 983f 6f22 edbf
00000110: 9ad9 b63f 312a d3be 1a8d 753f 1917 01c0
00000120: 944e 3e40 aaf4 e3be 39e3 fabe 1a74 e83f
00000130: 94f0 fc3e cbf9 053f 2bbc 0540 64e2 e6bf
00000140: 349e 8fbf 63da 86bf 675b 1b40 b481 c4be
00000150: c78f 1dc0 b9ac 0e40 fbc2 593f e4df c5be
00000160: 2c3b 9e3f f79d bcbe 4224 583f 2299 85bd
00000170: ef3b eabf 0e27 05bf 3d95 3cbf 1941 9e3f
00000180: 631f b4bf f3d7 dbbe c1e6 07bf ba9b 5740
00000190: 1ec8 5a3e 4add 00bf 6a9f 4c40 da1c 3cc0
000001a0: 7fd4 4b3e 76df cbbf a59a 9abf 5539 b2bf
000001b0: b849 1f3f dc37 dcbf 300a c1bf 0ae8 b63e
000001c0: 8ecf 4ebf be39 dc3e 8ed9 753d 116d a1be
000001d0: 47a9 ab3f 1f66 d6bf 80d4 443d 0f13 6ebf
000001e0: 21ef 7a3d fb1e 06c0 e479 b7be 1522 dabf
000001f0: e417 8b3e 18bc bb3b 2499 313f b2dc 3240
-1.3603688 -0.22336066 1.1809068 -1.3215214 -0.41651532 -0.905973 -0.3128391 -0.20188136
-2.8000088 0.9952973 -0.10990338 1.823251 2.7043653 -1.6242198 -0.99879336 0.9216766
-2.3566592 -2.419305 -0.8409711 3.020375 -0.024600089 -1.9176207 0.13248277 -1.4893068
-1.780967 0.09046915 -0.85295135 -0.5071785 2.8427432 -1.0274836 -1.1149116 3.5783768
1.6648251 -1.1523876 -0.5484247 -1.1135219 -0.5597028 -0.37338173 2.920215 -0.5195438
-1.8549092 2.4711328 -0.0072548985 -0.3636821 -0.8122042 -2.114029 -0.47957727 -3.0377307
-1.146974 -1.097136 -0.8587942 -0.38319242 2.9061706 0.14980756 0.41548848 1.3669152
-0.7277746 -1.7725859 -2.2396235 0.8126138 -0.60223776 -0.055868283 -1.9771155 -0.04052701
-0.62499464 0.47290668 1.1927373 -1.8526133 1.4285157 -0.41243127 0.9591843 -2.0170348
2.973546 -0.445226 -0.49001482 1.8160431 0.49402297 0.5233428 2.0896099 -1.8037839
-1.1220155 -1.0535396 2.4274538 -0.38380206 -2.4619005 2.2292922 0.8506314 -0.38647377
1.2361808 -0.36839268 0.84430325 -0.065233484 -1.829954 -0.5201272 -0.7366522 1.2363616
-1.4072078 -0.42938194 -0.5308648 3.3688798 0.21365401 -0.5033766 3.1972299 -2.939261
0.1990528 -1.592757 -1.2078444 -1.3923746 0.6222186 -1.7204547 -1.5081234 0.35723907
-0.80785453 0.43012804 0.06002193 -0.31528524 1.3411034 -1.6749915 0.04805422 -0.9299783
0.061263207 -2.095641 -0.35835183 -1.7041651 0.27166665 0.0057292096 0.693743 2.7947202
