backend/model_detector.onnx (onnx, 96075 bytes, 8 tensors)

head.2.weight f4 [2, 64]
0.037304036 0.06523097 0.04658787 -0.04808013 0.08717032 -0.06737928 -0.06267747 -0.12941611
-0.051772352 -0.0938081 -0.04580433 0.062354583 0.11437264 -0.10034667 0.04643762 0.0398891
-0.107411906 0.041516382 -0.073980704 0.0031946348 0.011229183 0.00032818806 0.05305586 0.033854634
0.0002790512 0.054129254 -0.052945312 0.11063533 -0.096712224 -0.022955319 0.1039212 -0.06692071
-0.029782988 0.02497963 0.06905415 -0.013238275 -0.106840044 0.040294208 -0.08473251 -0.09912535
-0.109683864 0.11498809 -0.09318671 0.040438443 -0.09323615 0.05440187 -0.09146681 -0.0124617545
0.063371815 0.014569383 -0.0039190254 -0.05714988 -0.04089113 -0.042388007 0.098030075 -0.03153219
-0.10189574 -0.08079342 0.0637886 -0.124999695 -0.041592993 -0.08941991 -0.026877897 -0.11673079
-0.091805086 -0.054012537 0.015003513 0.11726113 -0.102969676 -0.048583258 0.121283635 0.09229394
-0.10770639 -0.013233906 -0.081039734 0.016642971 0.06144152 -0.1103733 -0.014845992 -0.11749674
-0.08052447 -0.0008175542 -0.052369907 0.08735155 0.09232941 0.024810862 -0.03080813 -0.09610435
-0.044815697 0.0205413 0.11190276 -0.1020687 -0.010659299 0.09957487 0.12568413 0.07210353
0.05949036 0.025205467 -0.10818248 -0.034830414 -0.119721055 -0.06544127 -0.07062455 0.1052857
0.09983156 0.07287601 0.112185046 0.05391033 0.07592043 0.035776142 0.002776207 -0.04047086
0.050024226 0.028928537 0.106495984 -0.091481924 -0.049174707 -0.048656166 -0.105817005 -0.033835296
-0.011904651 0.107263245 -0.11221527 0.114742406 0.036957674 -6.781891e-05 -0.08549844 -0.051537853
00000000: 1ecc 183d d197 853d ecd2 3e3d acef 44bd
00000010: 5a86 b23d 26fe 89bd 0c5d 80bd a885 04be
00000020: 3f0f 54bd 761e c0bd 529d 3bbd 8567 7f3d
00000030: 343c ea3d 8e82 cdbd 6035 3e3d c162 233d
00000040: c6fa dbbd 150d 2a3d 3283 97bd 145d 513b
00000050: 9bfa 373c a810 ac39 1a51 593d 28ab 0a3d
00000060: 9e4d 9239 a3b6 5d3d 2fdd 58bd c794 e23d
00000070: 0f11 c6bd cb0c bcbc a3d4 d43d ba0d 89bd
00000080: 74fb f3bc 15a2 cc3c 436c 8d3d 5ae5 58bc
00000090: f4ce dabd 8a0b 253d 3d88 adbd 3b02 cbbd
000000a0: efa1 e0bd e07e eb3d acd8 bebd c8a2 253d
000000b0: 98f2 bebd 7fd4 5e3d f352 bbbd 632c 4cbc
000000c0: 15c9 813d 6cb4 6e3c 2b6b 80bb fe15 6abd
000000d0: 757d 27bd 0c9f 2dbd fec3 c83d e627 01bd
000000e0: b7ae d0bd 0577 a5bd 99a3 823d d7ff ffbd
000000f0: 6a5d 2abd c921 b7bd 092f dcbc 8d10 efbd
00000100: 4e04 bcbd 403c 5dbd 4bd1 753c 9a26 f03d
00000110: c4e1 d2bd 3dff 46bd 8e63 f83d 9b04 bd3d
00000120: 2b95 dcbd 06d3 58bc 29f8 a5bd d756 883c
00000130: 1aaa 7b3d 660b e2bd 9b3c 73bc 21a2 f0bd
00000140: 03ea a4bd 2251 56ba d481 56bd 5fe5 b23d
00000150: 3417 bd3d 2640 cb3c 5561 fcbc 5cd2 c4bd
00000160: aa90 37bd 3a46 a83c 462d e53d 6509 d1bd
00000170: 57a4 2ebc e9ed cb3d 57b3 003e 04ab 933d
00000180: 2aac 733d b27b ce3c c78e ddbd 56aa 0ebd
00000190: 5030 f5bd 1306 86bd 9ba3 90bd 07a0 d73d
000001a0: 7d74 cc3d 0440 953d 46c1 e53d 14d1 5c3d
000001b0: 2c7c 9b3d 018a 123d 06f1 353b c6c4 25bd
000001c0: 34e6 4c3d 8afb ec3c 911a da3d e05a bbbd
000001d0: 6b6b 49bd b04b 47bd 96b6 d8bd e196 0abd
000001e0: ba0b 43bc d5ac db3d 1fd1 e5bd 11fe ea3d
000001f0: ee60 173d 003a 8eb8 ce19 afbd 5b19 53bd

head.2.bias f4 [2]
-0.1150288 0.0658559
00000000: 3894 ebbd 75df 863d

onnx::Conv_40 f4 [16, 1, 3, 3]
-0.04008517 -0.0016476351 -0.02155943 0.066925995 0.032995835 -0.0025938938 0.055084307 0.07655916
-0.037242807 0.047192127 -0.017594434 0.08029622 0.009986253 0.022075776 -0.077215336 0.05060501
0.0164878 0.0044117137 0.012826508 0.032709576 -0.022599652 0.052789412 0.013180698 0.015122376
0.050127912 -0.009988994 -0.008249213 0.020418629 -0.00960227 0.0054436997 0.023731539 0.015957141
0.027126625 0.014196395 0.021994904 0.017498435 0.29842484 -0.115451925 -0.18529196 0.05269126
0.13016826 -0.21944323 -0.09350524 0.1502382 -0.065201186 -0.023116205 0.03871576 -0.014547464
-0.018638412 -0.046329293 -0.0007820661 -0.019063197 -0.03091085 -0.022162303 -0.025493028 -0.00830381
0.05153323 -0.010974187 -0.026452243 -0.018281288 -0.021585915 -0.02619381 -0.048812516 0.08404295
-0.061088745 0.0596366 0.07818912 0.046105668 0.042330414 0.05134326 -0.08020117 -0.09942359
-0.25294673 0.06999229 0.11389393 0.07538921 -0.21229978 -0.05632305 -0.012841005 0.27199686
0.11008687 -0.022457145 -0.049613863 -0.075278245 -0.004320288 0.0549517 -0.013911947 0.02924286
-0.005967674 -0.045475967 0.021442352 0.025850138 0.042010028 -0.03526495 -0.013662489 0.03645689
-0.00014969044 0.037148647 0.02202002 0.077386014 -0.19083555 0.23148395 -0.09501359 -0.23794574
-0.18180524 0.049946707 0.24789432 0.18263188 -0.03956038 0.052610695 -0.05953395 -0.03368491
-0.010482656 0.19601549 -0.1606797 -0.06928074 -0.0084360195 -0.11030503 -0.0668068 -0.12839021
0.10154085 -0.27546698 0.023767214 0.0886971 0.23373888 0.084570564 0.00727078 -0.021218129
-0.06277392 -0.0304704 0.008526403 0.009338461 -0.05431756 0.002320956 0.0035532562 0.031956103
0.041308958 0.0037416844 -0.010638011 0.0381836 0.032193292 -0.045896515 0.04810772 -0.006400546
00000000: 5930 24bd 76f5 d7ba 679d b0bc 7f10 893d
00000010: a426 073d 51fe 29bb 15a0 613d 0dcb 9c3d
00000020: ea8b 18bd 884c 413d 3422 90bc 5872 a43d
00000030: 629d 233c 42d8 b43c 1323 9ebd 3347 4f3d
00000040: 6c11 873c 2390 903b 4626 523c 7afa 053d
00000050: e822 b9bc b639 583d dbf3 573c d8c3 773c
00000060: ed52 4d3d e1a8 23bc b527 07bc f844 a73c
00000070: d752 1dbc 1061 b23b a568 c23c 8db8 823c
00000080: a838 de3c ff97 683c a82e b43c e158 8f3c
00000090: 24cb 983e 0f72 ecbd 2dbd 3dbe cad2 573d
000000a0: d44a 053e bab5 60be ad7f bfbd 0bd8 193e
000000b0: 3388 85bd 325e bdbc 6b94 1e3d 7d58 6ebc
000000c0: 95af 98bc c9c3 3dbd 9103 4dba 6c2a 9cbc
000000d0: c038 fdbc b88d b5bc c1d6 d0bc b40c 08bc
000000e0: 8214 533d 14cd 33bc 60b2 d8bc a4c2 95bc
000000f0: f2d4 b0bc 6794 d6bc a2ef 47bd b61e ac3d
00000100: 3138 7abd 8245 743d 9e21 a03d 4cd9 3c3d
00000110: a862 2d3d 4f4d 523d 8340 a4bd 989e cbbd
00000120: 3c82 81be 1e58 8f3d 3941 e93d a865 9a3d
00000130: 1d65 59be 00b3 66bd 1463 52bc 2c43 8b3e
00000140: 3a75 e13d 0cf8 b7bc e837 4bbd 7b2b 9abd
00000150: 3491 8dbb 0915 613d efee 63bc b98e ef3c
00000160: 7a8c c3bb 0245 3abd dfa7 af3c abc3 d33c
00000170: b512 2c3d fb71 10bd a2d8 5fbc d253 153d
00000180: 39f6 1cb9 2e29 183d 5463 b43c 8f7c 9e3d
00000190: 656a 43be 210a 6d3e 7c96 c2bd 0ca8 73be
000001a0: 272b 3abe eb94 4c3d 02d8 7d3e da03 3b3e
000001b0: 110a 22bd 507e 573d dfd9 73bd 30f9 09bd
000001c0: 72bf 2bbc 49b8 483e 3889 24be 10e3 8dbd
000001d0: 3b37 0abc 9be7 e1bd 01d2 88bd b978 03be
000001e0: a6f4 cf3d 020a 8dbe 76b3 c23c d3a6 b53d
000001f0: 3f59 6f3e 5533 ad3d b93f ee3b a4d1 adbc
00000200: 9d8f 80bd 0f9d f9bc 54b2 0b3c 5800 193c
00000210: 177c 5ebd 2e1b 183b bfdd 683b 67e4 023d
00000220: 9533 293d 0c37 753b 0d4b 2ebc 6866 1c3d
00000230: 1ddd 033d fcfd 3bbd 9a0c 453d acbb d1bb

onnx::Conv_41 f4 [16]
0.45873502 0.436942 0.41538468 0.44696578 -0.31157684 -0.41869837 -0.45276126 0.4038397
0.34876484 -0.40316346 0.4427882 0.25972354 -0.4204793 -0.11047841 -0.42057765 0.41800043
00000000: 51df ea3e ddb6 df3e 4dad d43e b3d8 e43e
00000010: 0087 9fbe a25f d6be 53d0 e7be 14c4 ce3e
00000020: 4e91 b23e 716b cebe 23b5 e23e 7cfa 843e
00000030: 1049 d7be 8142 e2bd f455 d7be 2704 d63e

onnx::Conv_43 f4 [32, 16, 3, 3]
-0.04093994 -0.10797797 0.068225004 -0.112229034 -0.103697985 -0.05420243 0.07797926 -0.117236204
0.053898007 -0.12762758 0.011558884 0.01798042 -0.08698928 0.005545664 0.11601678 -0.09799338
-0.04745449 -0.010781941 -0.08059768 0.06949702 -0.07939228 0.10191343 0.017639415 -0.016058208
-0.08560877 0.0188999 0.072819546 0.1113941 -0.08537469 0.02982494 -0.08999597 -0.092559114
0.012951557 -0.08023181 0.07409217 0.08577425 0.011255373 -0.0070683425 -0.040987145 0.050408546
0.13021567 -0.113759704 0.06477621 0.12971771 0.13524882 -0.087340266 -0.005397195 -0.0145723615
0.112573005 -0.0730519 -0.114075065 -0.038706675 0.07304462 0.13126838 -0.08335441 -0.095712446
0.13393612 0.09133666 0.055890735 -0.0035935936 -0.12916812 0.060611364 -0.11830225 -0.066303715
-0.11096002 0.09400385 0.12929082 0.07297121 0.10280655 0.030991055 0.052117024 0.01384203
0.04088122 0.13941534 0.026028484 -0.051113125 -0.025407406 0.12226363 0.054970715 -0.05604917
-0.11365015 0.039137997 -0.061045047 0.10122438 -0.017601477 -0.016736878 0.08491503 -0.12531216
-0.049482293 0.123414606 0.010380324 -0.06035217 -0.03360429 -0.08205836 -0.1212777 -0.11246994
0.012172022 0.084525764 -0.118515514 0.047982093 0.036494732 -0.06433016 -0.025409427 -0.103191376
-0.12900226 0.06672872 0.004852411 0.09194842 -0.007447376 -0.07496676 -0.111955754 -0.12308819
-0.102608785 -0.024738675 0.0030815443 -0.09200543 -0.07036182 0.10835288 0.06439328 0.005675497
0.018080723 0.08812005 -0.091786034 -0.11449848 0.09659408 0.027344957 0.11510873 0.0017587725
-0.12675387 -0.08687329 0.032778386 -0.05591952 -0.024117736 0.08063512 -0.100133315 -0.040311243
-0.0231155 0.057882406 0.07701759 -0.060683824 -0.0574564 -0.0021702722 -0.046673607 -0.031315435
-0.058510628 -0.04769579 -0.012924986 0.091593675 -0.10979446 -0.11061722 -0.10842499 -0.08217871
0.027020654 -0.03648401 -0.12100142 -0.12343703 -0.022826834 -0.0004292629 0.025767285 -0.06462948
-0.0023558289 0.005473835 -0.020544523 -0.015939089 -0.13911252 0.02484697 0.11804857 -0.0009075182
-0.1122688 0.06005186 -0.09032531 -0.05376717 0.09393402 -0.028864829 -0.11245898 -0.0039348407
0.02681249 0.105884306 -0.101734884 -0.084968835 -0.010661732 0.07582007 -0.033222195 -0.11264485
0.08435168 -0.09810087 0.10314953 -0.003364245 0.08242971 -0.026708823 -0.11747814 -0.088753216
-0.11896182 -0.049872722 -0.063727856 -0.099600114 0.11588187 -0.09055034 0.025942622 0.09974119
0.11044219 0.025473615 -0.12787457 -0.08816199 0.009141149 0.032511003 -0.0019100697 -0.12228383
-0.01388593 -0.023422034 -0.090840414 0.0027068958 -0.048294798 -0.08752768 0.11373331 -0.07274687
-0.03059834 -0.011996869 -0.02699 -0.10610288 0.0107486425 -0.06841445 0.037515823 -0.10974322
0.023365837 0.072253056 -0.069960006 0.124950536 0.025633551 0.013659576 0.068476215 0.04434294
-0.08706975 0.10130199 0.10498116 -0.122226566 -0.003466923 0.018994164 0.108893685 -0.0046591894
0.11341425 0.14489412 0.09052423 -0.116062865 -0.0696527 -0.070254326 -0.05024911 0.11958111
-0.05529464 0.090217225 0.064864635 -0.11910039 -0.06519766 -0.0053863623 -0.075578064 0.06359084
00000000: a3b0 27bd 8e23 ddbd 8db9 8b3d 56d8 e5bd
00000010: 9c5f d4bd 5e03 5ebd 97b3 9f3d 8919 f0bd
00000020: 28c4 5c3d ceb0 02be 7961 3d3c ac4b 933c
00000030: 7027 b2bd 67b8 b53b 359a ed3d c1b0 c8bd
00000040: a45f 42bd bda6 30bc 6510 a5bd 7454 8e3d
00000050: 6b98 a2bd fdb7 d03d 8980 903c 818c 83bc
00000060: a753 afbd f7d3 9a3c 6a22 953d 9722 e43d
00000070: edd8 aebd 6f53 f43c cf4f b8bd a28f bdbd
00000080: c432 543c 9350 a4bd a3bd 973d 69aa af3d
00000090: 7568 383c 8e9d e7bb 23e2 27bd 3179 4e3d
000000a0: 4257 053e d9fa e8bd 64a9 843d b8d4 043e
000000b0: ab7e 0a3e 74df b2bd f4da b0bb eac0 6ebc
000000c0: ad8c e63d 3c9c 95bd 30a0 e9bd e48a 1ebd
000000d0: 6b98 953d 386b 063e b8b5 aabd e304 c4bd
000000e0: 8d26 093e b70e bb3d afed 643d 7f82 6bbb
000000f0: a644 04be 9f43 783d 7348 f2bd 3eca 87bd
00000100: 023f e3bd 1785 c03d d064 043e ee71 953d
00000110: 3e8c d23d f4e0 fd3c a978 553d afc9 623c
00000120: 1173 273d e5c2 0e3e b039 d53c ff5b 51bd
00000130: 3123 d0bc 5b65 fa3d f928 613d d193 65bd
00000140: 69c1 e8bd 2a4f 203d 5f0a 7abd ba4e cf3d
00000150: f930 90bc c71b 89bc eee7 ad3d d551 00be
00000160: f2ad 4abd ccc0 fc3d 3c12 2a3c d633 77bd
00000170: a7a4 09bd 370e a8bd 7160 f8bd a456 e6bd
00000180: 296d 473c d81b ad3d 43b8 f2bd df88 443d
00000190: 807b 153d 88bf 83bd 6e27 d0bc 0056 d3bd
000001a0: 2b19 04be 11a9 883d f900 9f3b 744f bc3d
000001b0: 1e09 f4bb 2c88 99bd 0f49 e5bd a915 fcbd
000001c0: 8e24 d2bd c3a8 cabc bcf3 493b 586d bcbd
000001d0: dc19 90bd 1de8 dd3d a0e0 833d 85f9 b93b
000001e0: 061e 943c 4978 b43d 51fa bbbd 2e7e eabd
000001f0: 1ed3 c53d 8802 e03c 20be eb3d 9d86 e63a
00000200: c4cb 01be a0ea b1bd a142 063d de0b 65bd
00000210: 8f92 c5bc 0724 a53d b212 cdbd 671d 25bd
00000220: b85c bdbc 1a16 6d3d 66bb 9d3d 9a8f 78bd
00000230: 6757 6bbd 203b 0ebb d32c 3fbd 9d44 00bd
00000240: d7a8 6fbd a95c 43bd 52c3 53bc 7795 bb3d
00000250: ebdb e0bd 488b e2bd ec0d debd 504d a8bd
00000260: 6b5a dd3c 4270 15bd 98cf f7bd 8ecc fcbd
00000270: 57ff babc b10e e1b9 ea15 d33c 765c 84bd
00000280: 4064 1abb db5d b33b fd4c a8bc b192 82bc
00000290: 8373 0ebe df8b cb3c 73c3 f13d 84e6 6dba
000002a0: 2fed e5bd f0f8 753d 7afc b8bd f73a 5cbd
000002b0: 7b60 c03d ef75 ecbc e550 e6bd d6ef 80bb
000002c0: dea5 db3c dfd9 d83d 615a d0bd 2404 aebd
000002d0: 8cae 2ebc 8e47 9b3d ff13 08bd 58b2 e6bd
000002e0: 93c0 ac3d 1ce9 c8bd 1040 d33d aa7a 5cbb
000002f0: e8d0 a83d 76cc dabc 6198 f0bd 3fc4 b5bd
00000300: 41a2 f3bd 5747 4cbd c083 82bd 25fb cbbd
00000310: 7953 ed3d 7572 b9bd 9f85 d43c 1c45 cc3d
00000320: 842f e23d 0bae d03c 8df1 02be 468e b4bd
00000330: c2c4 153c 422a 053d 4e5b faba f26f fabd
00000340: d081 63bc 91df bfbc 8a0a babd 2d66 313b
00000350: c4d0 45bd b641 b3bd 02ed e83d 50fc 94bd
00000360: 5fa9 fabc 848e 44bc 221a ddbc 774c d9bd
00000370: 131b 303c e01c 8cbd 31aa 193d 0ec1 e0bd
00000380: b669 bf3c 69f9 933d 3147 8fbd 11e6 ff3d
00000390: 74fd d13c 6acc 5f3c 423d 8c3d f1a0 353d
000003a0: a051 b2bd 6b77 cf3d 5d00 d73d ec51 fabd
000003b0: 5135 63bb a699 9b3c a703 df3d 1dac 98bb
000003c0: bb45 e83d 205f 143e c464 b93d 5eb2 edbd
000003d0: 13a6 8ebd 80e1 8fbd 03d2 4dbd f1e6 f43d
000003e0: a27c 62bd cfc3 b83d c0d7 843d e8ea f3bd
000003f0: 5a86 85bd 1580 b0bb acc8 9abd ea3b 823d

onnx::Conv_44 f4 [32]
0.4213102 0.4289026 0.4637623 0.33060414 0.38968515 -0.1914619 0.22189333 -0.16364639
-0.15673895 0.02221728 -0.36185655 -0.11592559 -0.11430077 -0.061365854 -0.08800635 -0.29685816
-0.061507124 -0.07105162 -0.4361127 0.046199005 -0.32612664 0.3759657 -0.35745057 0.27729493
-0.17422323 0.3806086 -0.25539812 -0.04682002 0.7144158 -0.22198415 -0.31119147 -0.24927391
00000000: f8b5 d73e 1f99 db3e 4172 ed3e f244 a93e
00000010: d084 c73e 970e 44be 0138 633e eb92 27be
00000020: 2d80 20be 0301 b63c 4345 b9be 656a edbd
00000030: 8616 eabd c35a 7bbd ac3c b4bd cbfd 97be
00000040: e5ee 7bbd 8383 91bd 2a4a dfbe 2b3b 3d3d
00000050: 12fa a6be 947e c03e c303 b7be 9af9 8d3e
00000060: 9367 32be 21df c23e 8bc3 82be 59c6 3fbd
00000070: f4e3 363f d04f 63be 7d54 9fbe a941 7fbe

onnx::Conv_46 f4 [64, 32, 3, 3]
0.05363573 0.07681442 0.017494746 0.048166405 -0.07497051 -0.04401063 -0.07174327 -0.06800646
0.009887272 -0.013577958 -0.025929436 -4.158799e-05 0.039112147 0.06292134 -0.04153967 0.047602393
-0.026645703 0.041656576 -0.035672046 -0.04927669 0.02039051 -0.005026024 0.013066808 -0.006440421
-0.011928385 -0.050016962 0.08239085 -0.04538033 0.08246162 -0.03695569 0.052857626 -0.060075693
0.07181862 0.083014466 0.08796055 0.0760418 0.08671413 -0.045776658 -0.007768637 0.047485474
0.009463998 -0.054587558 -0.060652018 0.086238 0.08565118 0.01054828 0.041493133 0.070408724
-0.0636522 -0.06422996 0.054735422 0.07165823 -0.055708583 -0.08487366 0.02089329 -0.023905585
-0.0724924 -0.054827876 -0.07495384 0.043077305 -0.029908594 0.062373847 0.000285023 -0.04546501
-0.0056744856 0.07030208 0.064980365 -0.047947377 -0.010085269 0.050292622 0.07267971 0.04493922
-0.0427745 0.037908133 0.0014883992 0.042696964 -0.01849891 0.006737017 -0.0817872 -0.062759854
0.05064569 -0.058249548 -0.059362516 -0.06632512 0.010303938 0.0030687903 0.029512871 0.062257588
-0.024763666 0.020084845 0.07202224 -0.0023646322 -0.016938161 0.042662937 -0.019374993 -0.044944875
-0.08398139 0.002990726 0.015054729 -0.058638766 -0.018115234 -0.035167325 0.032468326 -0.004650893
-0.071100615 0.0755913 0.05480972 -0.057819974 0.050374653 -0.024312641 0.0054284926 0.014901405
-0.06693253 -0.07431119 0.013637844 0.023125218 0.061296012 -0.022721605 0.06435228 0.065738924
0.06664177 0.020322165 -0.036376216 -0.016126117 0.0010431295 0.06745446 0.0030534167 -0.062236592
-0.009260592 -0.05383127 -0.056435395 -0.03105899 0.0546723 -0.07728183 0.008439437 0.050316095
-0.05705259 0.007918624 0.04919669 -0.008059791 -0.0012443464 -0.02491595 -0.038436946 -0.006929221
-0.0063038142 0.036073092 0.07941616 -0.059916496 0.07799597 0.060795806 -0.081006475 -0.07324445
0.051078677 -0.008429754 0.052278813 0.050814282 -0.023734247 -0.07310438 -0.0016938241 -0.017872006
-0.005155346 0.008872698 0.08866731 -0.04109241 0.013872081 0.043548156 -0.03438503 -0.07708885
-0.036311205 -0.03368901 0.07387293 -0.005357634 0.041590557 0.062395792 -0.054821245 -0.023053098
-0.03696336 0.03619599 0.063225925 -0.049058873 -0.061903946 -0.009362123 -0.032933958 0.06711684
0.056197267 -0.04148784 0.04660307 -0.008666506 0.039410893 -0.009851652 0.06497619 0.0025909566
0.075475715 -0.012768839 0.060538873 0.07532034 -0.037600115 -0.04334986 0.012259051 -0.034482267
0.019930389 0.01503038 0.038534112 0.004760502 -0.039970603 -0.025943354 0.06324864 0.080082476
0.04626342 -0.012528682 0.0551816 -0.038475826 0.07121723 -0.013430752 -0.006545107 0.08387212
-0.07526609 0.020819725 -0.030857641 0.007364813 0.002663158 -0.03823294 -0.011479414 -0.0060662585
-0.011423179 0.08551853 0.0025455244 -0.03534674 0.037513904 -0.049200427 -0.031771928 0.007068469
0.043476976 0.014612103 0.008735243 -0.027134392 0.06428618 -0.07023359 -0.06730512 -0.07077457
0.034886867 0.020464813 0.0081692515 -0.0095966915 -0.046008285 -0.0771396 0.045195036 0.04213935
0.03352964 -0.016157163 -0.058451362 -0.02309857 -0.067134224 -0.010593226 0.07692985 0.014928048
00000000: 24b1 5b3d e150 9d3d 2451 8f3c 234a 453d
00000010: 248a 99bd 7e44 34bd 23ee 92bd f946 8bbd
00000020: 39fe 213c 1576 5ebc f869 d4bc c46e 2eb8
00000030: 0f34 203d e7dc 803d 8025 2abd bafa 423d
00000040: 1748 dabc 16a0 2a3d da1c 12bd 5bd6 49bd
00000050: 000a a73c 58b1 a4bb 2a16 563c 2b0a d3bb
00000060: 466f 43bc 96de 4cbd 89bc a83d bae0 39bd
00000070: a3e1 a83d d95e 17bd 3d81 583d ee11 76bd
00000080: a415 933d 7d03 aa3d a924 b43d cebb 9b3d
00000090: 2e97 b13d 4e80 3bbd 0d90 febb 2180 423d
000000a0: e20e 1b3c 3497 5fbd 406e 78bd 8c9d b03d
000000b0: e369 af3d b1d2 2c3c b4f4 293d 7332 903d
000000c0: 165c 82bd ff8a 83bd 4032 603d 8dc1 923d
000000d0: af2e 64bd 3ed2 adbd 6828 ab3c a5d5 c3bc
000000e0: e576 94bd 3293 60bd 6681 99bd d471 303d
000000f0: de02 f5bc b87b 7f3d 246f 9539 8539 3abd
00000100: 09f1 b9bb 89fa 8f3d 6d14 853d 7864 44bd
00000110: af3c 25bc a3ff 4d3d 1ad9 943d 3012 383d
00000120: 5034 2fbd 8f45 1b3d 6416 c33a 03e3 2e3d
00000130: 078b 97bc 32c2 dc3b 0c80 a7bd 3d88 80bd
00000140: db71 4f3d 1497 6ebd 1c26 73bd 77d5 87bd
00000150: d9d1 283c c21d 493b fac4 f13c d001 7f3d
00000160: 2cdd cabc f988 a43c 6580 933d f2f7 1abb
00000170: e6c1 8abc 55bf 2e3d 4eb8 9ebc 1e18 38bd
00000180: 6ffe abbd 0e00 443b 1ca8 763c 342f 70bd
00000190: 6666 94bc 9d0b 10bd 82fd 043d 8566 98bb
000001a0: 339d 91bd 9dcf 9a3d 2880 603d a3d4 6cbd
000001b0: a755 4e3d 4e2b c7bc 7fe1 b13b 0625 743c
000001c0: ec13 89bd 7730 98bd 4371 5f3c 1971 bd3c
000001d0: 8711 7b3d a922 babc 21cb 833d 21a2 863d
000001e0: 7b7b 883d ab7a a63c 3aff 14bd eb1a 84bc
000001f0: 9eb9 883a 9025 8a3d d51b 483b cceb 7ebd
00000200: bdb9 17bc 2e7e 5cbd cd28 67bd 6c6f febc
00000210: 10f0 5f3d f045 9ebd 9045 0a3c 4018 4e3d
00000220: faaf 69bd 1ebd 013c 7882 493d 370d 04bc
00000230: 5619 a3ba 891c ccbc 0f70 1dbd 850e e3bb
00000240: 3a90 cebb 61c1 133d f1a4 a23d 006b 75bd
00000250: 5abc 9f3d 0605 793d b9e6 a5bd 3001 96bd
00000260: e037 513d f31c 0abc 4f22 563d a322 503d
00000270: 536e c2bc c0b7 95bd 4e03 deba 5068 92bc
00000280: 2dee a8bb cb5e 113c 3597 b53d 8450 28bd
00000290: ba47 633c 8d5f 323d 51d7 0cbd c2e0 9dbd
000002a0: 0fbb 14bd 7dfd 09bd b14a 973d 178f afbb
000002b0: dc5a 2a3d bb92 7f3d 3e8c 60bd dad9 bcbc
000002c0: e466 17bd 3f42 143d 987c 813d f5f1 48bd
000002d0: fe8e 7dbd 9763 19bc c2e5 06bd 8e74 893d
000002e0: 1b2f 663d 27ef 29bd dce2 3e3d f6fd 0dbc
000002f0: 516d 213d d368 21bc 3d12 853d 0acd 293b
00000300: 0393 9a3d 6434 51bc 9cf7 773d 8d41 9a3d
00000310: 9402 1abd 9f8f 31bd 30da 483c 473d 0dbd
00000320: 0e45 a33c fc41 763c f2d5 1d3d fcfd 9b3b
00000330: 37b8 23bd 2887 d4bc 8188 813d 4802 a43d
00000340: b67e 3d3d 1a45 4dbc 1a06 623d d498 1dbd
00000350: 57da 913d a80c 5cbc 5678 d6bb 25c5 ab3d
00000360: 1c25 9abd 218e aa3c 2ac9 fcbc 8754 f13b
00000370: 6188 2e3b 259a 1cbd 2714 3cbc 77c7 c6bb
00000380: 4928 3bbc 5724 af3d d0d2 263b bec7 10bd
00000390: 2ea8 193d 6386 49bd 4823 02bd 9e9e e73b
000003a0: ea14 323d 9a67 6f3c 441e 0f3c f248 debc
000003b0: 79a8 833d a1d6 8fbd 44d7 89bd 42f2 90bd
000003c0: 88e5 0e3d d3a5 a73c 53d8 053c 713b 1dbc
000003d0: 2f73 3cbd 5efb 9dbd 6e1e 393d 509a 2c3d
000003e0: 6056 093d 075c 84bc b26a 6fbd 3639 bdbc
000003f0: ab7d 89bd 368f 2dbc 668d 9d3d c594 743c

onnx::Conv_47 f4 [64]
-0.18269032 0.030083297 0.7178176 -0.31093413 0.29667997 -0.17406741 -0.16478023 -0.4264966
0.09040142 -0.07935399 0.12406188 0.20568585 -0.18181185 0.3951984 -0.093939885 0.36661655
-0.22985198 0.357013 -0.22563854 -0.19143951 -0.036587477 -0.0863948 0.011612695 0.09175599
0.13330147 0.37152952 -0.5218143 0.15295815 -0.004870616 -0.011327287 -0.11736086 -0.16327542
-0.35007563 0.094490014 0.14335649 0.29354 0.35383445 0.2804234 -0.4329148 -0.40606096
-0.19550188 0.24142557 -0.44144198 -0.33135965 -0.20910493 0.025629466 0.020309519 0.02784415
-0.008355293 -0.094321996 -0.22010195 0.03873978 0.21934518 -0.2340358 0.30794808 0.06493157
-0.14861721 -0.23156478 -0.10378236 -0.7202831 -0.015892493 -0.2864362 -0.056246005 -0.050952543
00000000: 2c13 3bbe 3f71 f63c e5c2 373f c232 9fbe
00000010: 70e6 973e ba3e 32be 26bc 28be c35d dabe
00000020: 6124 b93d 5884 a2bd 2814 fe3d 509f 523e
00000030: e32c 3abe 7257 ca3e 8e63 c0bd 2ab5 bb3e
00000040: 515e 6bbe 68ca b63e ca0d 67be b808 44be
00000050: c0dc 15bd c2ef b0bd 2c43 3e3c 91ea bb3d
00000060: 2e80 083e 1e39 be3e 9f95 05bf 10a1 1c3e
00000070: b099 9fbb 1696 39bc e45a f0bd ac31 27be
00000080: 1d3d b3be fb83 c13d 0bcc 123e e04a 963e
00000090: ca29 b53e a893 8f3e 02a7 ddbe 39e7 cfbe
000000a0: a531 48be 4438 773e af04 e2be f9a7 a9be
000000b0: 9a1f 56be e3f4 d13c 2660 a63c 6a19 e43c
000000c0: a4e4 08bc e42b c1bd 6862 61be 9bad 1e3d
000000d0: 069c 603e 15a7 6fbe 5fab 9d3e d8fa 843d
000000e0: 1c2f 18be 511f 6dbe d98b d4bd 7964 38bf
000000f0: f930 82bc c4a7 92be 3662 66bd 9db3 50bd
