backend/model_detector (2).onnx (onnx, 21823 bytes, 6 tensors)

conv_block.0.weight f4 [16, 1, 3, 3]
00000000: f925 68be a2c2 4ebe 3e29 a5be 2a08 8f3e
00000010: 98b8 3e3e 0d37 b6bd 62b4 5f3e afab dabd
00000020: b431 8bbe 1544 c0bd 1177 583e 4bf8 8abe
00000030: f857 84be 64a2 19bd 0db7 883e b249 27bc
00000040: 8bb4 253e cc86 a83e e9dd 8ebe 2484 263d
00000050: 5abe a1be 30ab c1bc cf8a b93d 989d 89be
00000060: 00ce 4dbd 4390 f1bd 84b5 d23d 9c6b 3dbe
00000070: 737c 7fbe 5046 433d a590 ab3e 93df 07be
00000080: 156a ef3c 1a63 b13e 3901 a73e da80 843e
00000090: d73c 34be 9ba4 5ebe 54dc 85be 247c 8abe
000000a0: 6621 493e 738e d33d 7024 883e 03ba bf39
000000b0: 06d1 9cbe 4a15 10be dc7f 83be 3892 e4bd
000000c0: b23b 833e bc3c 463e ab23 193e 57e5 833e
000000d0: 69b6 5ebe 199e 0abe 74c6 f23d 2287 8f3e
000000e0: 13bd 44be 81c7 203e 3a03 533d c99e 953e
000000f0: 53ca f6bd 7716 84be c3d7 a8bd 8b06 1dbe
00000100: 4cd5 0b3e 4319 00be f582 333e 712b a53e
00000110: d055 8abe 7622 9fbe 69ee 973e 92dd 9dbd
00000120: 9adc 68be 8e5d 673e 6280 10be 1b35 fc3d
00000130: e77f 67be bfd1 183e 16a5 f23b 8778 2d3e
00000140: 6e3b 43be 8452 1ebd c417 7bbe 7edc 63be
00000150: 5022 d4bd 9896 febb 57c6 953e f694 4e3e
00000160: 8763 5a3e e998 3bbe 6c71 723d eb0c 9fbe
00000170: 8119 423e e354 a33e f3fa 66be 8457 89be
00000180: 4414 94be 1995 3a3e c917 963e 1c1d 753e
00000190: 6b27 9a3e 9c62 243e 7724 b1be 6962 853c
000001a0: 9db8 a73e 38c5 abbe d8a0 3fba 8993 2c3e
000001b0: 2071 35be 0a1d 583e 265a 873e df29 e3bd
000001c0: 3766 6cbe 1ab6 32be cb16 553e 0a4d 733e
000001d0: b9f7 06be 3b1e b3be 1bdd 21be e136 973e
000001e0: 0fd4 31be 8829 cf3d 035f 7e3e fedc 93be
000001f0: cb93 983e f5fa 9d3e 7654 66be 1d7f a33d
00000200: b5cd 953d 725d 41bd 0d5b 6b3d bd28 9e3e
00000210: f18b 843e 9045 c3bd f99d 483c 0a20 b03e
00000220: 5ebd 963e 5f55 12be 0e9c 4fbe b425 0fbe
00000230: 62a1 1dbe dd90 9dbe 0d41 a73e 2ca1 fb3d
-0.22670735 -0.20191434 -0.32258028 0.27935916 0.18625104 -0.08897219 0.21846154 -0.10677277
-0.27186358 -0.093879856 0.2113917 -0.27142558 -0.25848365 -0.037508383 0.26702157 -0.010210441
0.16182153 0.32915342 -0.2790368 0.040653363 -0.3159054 -0.023641199 0.09059679 -0.26878047
-0.050245285 -0.11795094 0.102885276 -0.18498081 -0.24949817 0.047674477 0.33508793 -0.1326888
0.029225389 0.3464592 0.3261812 0.25879556 -0.17601334 -0.2174248 -0.2614466 -0.27047837
0.19641647 0.103299044 0.265903 0.00036568948 -0.30628222 -0.14070621 -0.25683486 -0.111607015
0.2563148 0.19359106 0.14955013 0.2576091 -0.21749271 -0.13536872 0.11854258 0.28032786
-0.19212751 0.15701105 0.05151675 0.29222706 -0.12050309 -0.2579839 -0.08244278 -0.15334527
0.13655585 -0.12509637 0.17530425 0.32259706 -0.27018595 -0.3108098 0.2967408 -0.07708277
-0.22740403 0.22594282 -0.14111474 0.123148166 -0.22607385 0.14923762 0.0074049337 0.16940509
-0.1906564 -0.03865291 -0.24520785 -0.2225208 -0.10358107 -0.007769417 0.29252884 0.20174012
0.21327029 -0.1832005 0.0591902 -0.31064543 0.18955041 0.319007 -0.22556667 -0.26824582
-0.2892171 0.18220939 0.29315022 0.23936886 0.301082 0.16053241 -0.34598133 0.016282277
0.32758036 -0.33548903 -0.00073100394 0.16853155 -0.17718935 0.21104828 0.26435965 -0.11091971
-0.23085867 -0.17452279 0.20809476 0.23759857 -0.13180436 -0.34984002 -0.15807001 0.29534057
-0.1736605 0.10115343 0.24840932 -0.2887954 0.29800257 0.30855528 -0.22493157 0.07983229
0.07314626 -0.047208257 0.05745988 0.30890456 0.25888017 -0.09534752 0.012244695 0.34399444
0.2944135 -0.14290379 -0.20274374 -0.13979226 -0.15393594 -0.30774584 0.32666817 0.122866005

conv_block.0.bias f4 [16]
00000000: 71ec e93d a06e 873e 6c37 95bb a8e8 d0bd
00000010: ab1e 433d abcf 1cbd 7e33 6fbe 9606 663c
00000020: 01ee 903e c124 09be 582d c8bd ef69 00be
00000030: 9bb8 7c3d 30fe 82bc f6cb 0d3e d0d1 7cbe
0.11422051 0.26451588 -0.004553726 -0.10200626 0.04763667 -0.038283985 -0.23359486 0.014039656
0.28306583 -0.13392927 -0.09774274 -0.1254041 0.06169949 -0.015990347 0.13847336 -0.24689412

conv_block.3.weight f4 [32, 16, 3, 3]
00000000: c28f 67bd f8d4 663d 9214 c93b 02b6 d1bb
00000010: ab23 643c 2ecb b53c 4c26 5f3d 5fd5 8e3d
00000020: 2e65 603c f8d6 4abd 629e 9ebc 3a85 c03b
00000030: 6859 fcbc 09ee 86bc 698a 153d 9e66 7b3d
00000040: 000a c6bd 0a1f 783c 4c74 09bc be6b 933d
00000050: 8da8 8a3d a15b e6bc 9a99 00bd 79d1 6ebd
00000060: 37da 253b b1e7 0bbd d179 f13c 91fb c03c
00000070: 4630 1a3c ae9a 5b3d de44 003d 1dbb 8ebd
00000080: 7141 25bd e694 213d d652 723d 4de0 b9bd
00000090: b6ac 7c3d 10f2 c5bb 39ca 9ebd bd54 82bd
000000a0: 9ed1 7e3d 3765 1ebd ccb2 9abd 81f3 573d
000000b0: efa1 683d 4e32 49bd d91f 133d d82d d13c
000000c0: dc22 1bbd b6d1 30bd efbb 2dbd deb4 a1bd
000000d0: a320 533d 984a 893d 88e8 91ba 3c64 6b3c
000000e0: 8752 1f3d 85ae c13c 8ee0 573b cb1b 70bd
000000f0: a0bd 56bd 0887 653d 74ce 28bd efff a1bd
00000100: c31e 603d 990c e7bd 6279 2cbd 2a47 dfbc
00000110: c04c ccbd 1a6f b5bd 08aa 83bd d28d 31bd
00000120: 3f17 603d 1f9e e6bc 8b20 7a3d 4376 2dbd
00000130: d95d 223d 244c 21bc e016 2b3d eadd 563a
00000140: ce28 86bd 28ed 8c3c 6184 c8ba d6cc a73d
00000150: 493a 1b3d d88a d0bc b372 3f3c 289a 9c3d
00000160: 1e75 6e3d 268b a9bd a0b7 793c 866f 4dbd
00000170: f52c 2fbb 51ac 08bd d32b adbd 49de 19bd
00000180: 443c 11bd 8da2 66bd 6530 05bd 78ef e53a
00000190: ecf8 a4bc 1d16 383d 9dfa 193d a3ed c8bd
000001a0: 5c75 51bc 28e9 553c 043b 83bd 702e 6e3d
000001b0: 9718 81bc 7265 2ebd 28b5 6e3d fe5c 39bd
000001c0: 802d 203d c684 b1bd a638 95bb 177a 513d
000001d0: 744f 733d efa1 2cbd c40c 723d b415 42bd
000001e0: d497 163b 4742 f6bc 3eb6 1fbd ac29 3b3c
000001f0: f6e7 4ebd 502e 3fbd 3457 b5bd 8ce5 2c3d
00000200: 3c16 293d 6855 bdbd 242e 30bd f5fd 32bd
00000210: 643f 823d 67b2 9fbc c02a a03c 1404 44bd
00000220: 25db 813d a798 6a3a 6d5c 2ebc d72e ba3c
00000230: 66ef e73b 1aba 9fbc fc4f 2cbd 89ea 363b
00000240: 1d7a bcbd 0257 913b 54ff ef3c aa59 a1bc
00000250: 2e10 773c a837 cf3a 5fd8 95bc 23d7 9d3b
00000260: cf9d 10bd df1a 81bd c740 843d 45b7 3ebd
00000270: 7357 813d 4264 17bd 44c9 99bd 30fb edbb
00000280: 76a7 e7bb fc69 273d a57f acbd f366 89bd
00000290: 1777 36bc 0316 5abd b161 90bc 386e bf3a
000002a0: c8d2 1cbd 6924 e03c 9ee3 8d3c 356b 0fbd
000002b0: abff eb3c 7843 9abb f743 303d 92e8 4e3d
000002c0: f85a a5bd b716 5e3d 3634 86bd 144b a6bd
000002d0: 6706 f23c c0b0 5e3d 173d 8cbd 9fab bc3b
000002e0: 56d9 9ebc 4ef2 cd3d 62e5 38bd fc8b 35bd
000002f0: 3754 1c3d 06cf 32bc 09b7 96bd d7b5 07bd
00000300: 0ead 6a3d 85be cb3c 26e7 263d a850 003d
00000310: c069 96bc d094 953d c708 75bd dd3e abbb
00000320: aecb b5bd 5e48 bdbc 8af8 92bc c85e 7e3d
00000330: 5ef2 34bd 41b3 543d 3bcd a3bd 539c b6bc
00000340: 2ce0 96bd 70bb b4bd 02da 883c d666 8d3d
00000350: a8d1 193d 6e62 853d d5e5 7cbc 4c72 25bc
00000360: 8966 22bd a8e5 8b3c 001f a9bd 67b0 a7bd
00000370: 1af4 933d 59f5 7d3c cfe2 12bd 48ae a73d
00000380: b698 41bd 46e1 c2bd 0d62 26bc 52e3 bcbc
00000390: 7322 9a3d a549 89bd 1d03 2fbd 1895 c1bc
000003a0: e38d b23c 5ecd 8a3c 97ec 05bd 8841 39bd
000003b0: 6dba 3bbd 33d7 b4bd d3fc f53c 9b1b 8bbc
000003c0: 396d 80bd 8b68 06bd 3d62 f7bc de79 8abd
000003d0: f8a1 97bd 23cb 07bd a22e 4c3d 7b1a f9bb
000003e0: 9074 6dbd 8b0a b53c bf11 723c f83d 853d
000003f0: adea 52bd 9227 8b3a 525a 6f3d adab 413d
-0.056533583 0.056355447 0.0061364854 -0.006399871 0.0139245195 0.02219161 0.054479882 0.06974291
0.013695998 -0.049521416 -0.019362632 0.005875257 -0.030804351 -0.016470926 0.03650895 0.06137716
-0.09669876 0.015144119 -0.008389544 0.071982846 0.0677043 -0.028119864 -0.031396486 -0.058305237
0.0025307068 -0.034156505 0.029477032 0.023557456 0.009410923 0.05361431 0.031315677 -0.06969283
-0.040345613 0.03944864 0.05916103 -0.09075985 0.061688147 -0.006040819 -0.07753415 -0.06363819
0.062211625 -0.038670745 -0.07553634 0.052722458 0.056795057 -0.04912024 0.035919044 0.025534555
-0.03787504 -0.043168746 -0.042415556 -0.07895826 0.051544797 0.06703681 -0.0011131922 0.014367159
0.038897064 0.023642788 0.0032940242 -0.058620255 -0.052426934 0.05603698 -0.041212514 -0.079101436
0.054716837 -0.112817 -0.042107947 -0.027255613 -0.099755764 -0.088590816 -0.06428915 -0.04334814
0.05470967 -0.02815157 0.06106619 -0.04234911 0.03964028 -0.0098448135 0.041769862 0.000819652
-0.065507516 0.017202929 -0.0015298241 0.08193366 0.037897382 -0.02545683 0.011685061 0.076465905
0.05821716 -0.082784936 0.0152415335 -0.050155185 -0.0026729677 -0.03336746 -0.084556244 -0.037565503
-0.035457864 -0.056307364 -0.032516856 0.0017542681 -0.020138226 0.044942964 0.03759252 -0.098109506
-0.012784328 0.013056077 -0.06407741 0.058149755 -0.015758796 -0.042577215 0.058278233 -0.0452547
0.039105892 -0.08667903 -0.004553872 0.051141825 0.059401944 -0.04214662 0.059094205 -0.04738398
0.002297868 -0.0300609 -0.03899216 0.01142351 -0.050514184 -0.046675026 -0.08854523 0.0422111
0.04128097 -0.092448056 -0.043012753 -0.043699224 0.06359747 -0.019494249 0.019551635 -0.04785545
0.063406266 0.00089491386 -0.010642153 0.022727413 0.007078099 -0.01949792 -0.042068467 0.002791079
-0.09202979 0.004435421 0.029296555 -0.019696075 0.015079541 0.0015809434 -0.01829165 0.004816906
-0.035306748 -0.063039534 0.06457668 -0.0465615 0.06315508 -0.036960848 -0.075090915 -0.00726261
-0.0070695234 0.04087256 -0.08422784 -0.06709089 -0.011136792 -0.05324365 -0.017624708 0.0014604991
-0.038286954 0.027361112 0.01732045 -0.03501435 0.028808435 -0.00470775 0.043033566 0.050514765
-0.080739915 0.05422088 -0.06552927 -0.08119789 0.029544069 0.05436778 -0.068475895 0.0057577635
-0.019390743 0.100559816 -0.04514063 -0.044322953 0.03816625 -0.010913616 -0.0735913 -0.0331324
0.057293944 0.02487112 0.040747784 0.03132692 -0.018360972 0.07303774 -0.059822824 -0.0052259997
-0.088767394 -0.023105796 -0.017940778 0.06210211 -0.04417645 0.051928762 -0.07998129 -0.022291338
-0.07366976 -0.08824813 0.016705517 0.0690438 0.03755346 0.065129146 -0.015435656 -0.010098051
-0.039648566 0.017077282 -0.08257866 -0.08187943 0.07224293 0.01550039 -0.035860833 0.081875384
-0.047264777 -0.09515624 -0.010155213 -0.023057614 0.07526102 -0.067035 -0.04272758 -0.023630664
0.021796172 0.01694363 -0.032696333 -0.04522851 -0.045832086 -0.088301085 0.030027783 -0.016980937
-0.062708326 -0.032814544 -0.03019821 -0.067615256 -0.0740394 -0.03315271 0.04984916 -0.0076020337
-0.05797249 0.022099754 0.014774739 0.0650596 -0.051493336 0.0010616651 0.058435746 0.047282863

conv_block.3.bias f4 [32]
00000000: 4a8f 453c 66e7 4f3d 576b 9fba eef8 dfbc
00000010: 17f1 27bd 04f1 bebb ab8e 46bb 3cd8 f4bc
00000020: 841f 783c 9900 98bd ae99 7dbd d5be 73bc
00000030: 88f3 dfba b4b2 07bd 7b1d 1ebd cb68 773d
00000040: 7f29 03bd 5bf8 1bbd 37fa 1e3c 1e0a b6bd
00000050: 2e8d 86bd a9d9 773d 59b8 2dbd 1b8d cbbc
00000060: 9b85 7dbd 50b9 65bd 3696 00bd f243 3fbd
00000070: 4096 3e3d 835a af3d e26d 42bd be74 27bd
0.012058089 0.050757788 -0.0012162727 -0.027340379 -0.041001406 -0.005827071 -0.003029744 -0.029888265
0.015144233 -0.07421989 -0.06191414 -0.014877041 -0.0017086128 -0.03312941 -0.038602334 0.060402673
-0.032021996 -0.038078647 0.009703211 -0.088886485 -0.06569897 0.06051031 -0.042412136 -0.024847558
-0.061894994 -0.05608493 -0.031393252 -0.046695657 0.04653001 0.085621856 -0.047468074 -0.04088282

fc.weight f4 [2, 32]
00000000: 76c7 713c 31f5 f3bd 007e 18be 7593 d4bd
00000010: 4ff2 c33d 93cb 76bd b36f 8b3d 186c 92bd
00000020: 27a4 74bd e975 153e 9798 0b3c 50bd 0abe
00000030: 7c72 b03c f85c 4f3d e3c8 293d 89bf 69bd
00000040: 3578 203e 5c46 b23d bb9a 233e a680 38bc
00000050: b508 843c 9dd9 363e 0cd9 603d 401d 5d3d
00000060: 802a ba3d 6b06 313e 6b15 fdbd 4d80 6ebc
00000070: 366a b43c 9775 0bbd da75 e33d c086 63bc
00000080: 0ffe 133e 6af1 1dbd fd70 283e b931 5f3d
00000090: e788 a23d 9483 15be 6704 f63d 6965 b73d
000000a0: 4542 013d ab6f 5dbb 42c9 e8bc 91b9 383d
000000b0: 9a9e b2bd 2425 123e 0032 f7bd 0225 6c3c
000000c0: 2981 2ebc 0103 e73b bd18 3fbe 6bfa a83c
000000d0: 7ee1 f23d 28bd eebd a4cd c5bd 6cab d3bc
000000e0: cfc4 363c 5f2a 79bc b632 ffbd 32a5 363c
000000f0: 48ff 85bd ff80 1abe 9bb6 9cbd acde 9a3d
0.014757028 -0.11912001 -0.14891815 -0.10379688 0.09567701 -0.060252737 0.06808414 -0.071495235
-0.05972686 0.1459576 0.008520267 -0.1354878 0.021538965 0.05062577 0.041451346 -0.057067428
0.15670855 0.08704826 0.15976994 -0.011261141 0.016117433 0.1785645 0.054894492 0.053982973
0.090901375 0.17287605 -0.12357601 -0.0145569565 0.022023302 -0.03404769 0.11106463 -0.013887107
0.14452384 -0.03856031 0.16449352 0.05449078 0.07936268 -0.14600974 0.120125584 0.08954889
0.03155734 -0.0033788483 -0.02841628 0.045098845 -0.08721657 0.1427198 -0.120700836 0.01441312
-0.010650911 0.0070499186 -0.1866178 0.020627221 0.118594155 -0.116571724 -0.096583635 -0.025838576
0.011155321 -0.015207856 -0.12460844 0.011147784 -0.06542832 -0.1508827 -0.07652017 0.075620025

fc.bias f4 [2]
00000000: d4f7 da3d a975 033d
0.10691801 0.03209463
